model.pt (torch, 1807 bytes, 3 tensors)

linear_1.weight f4 [5, 2]
000000 f6 62 80 bd 02 18 94 bc 8f a3 0f 3f cd 97 03 3f
       -0.06268875 -0.018077854 0.56108946 0.51403505
000010 47 89 96 bf 78 10 86 bf ae cd f8 3f af a9 dd 3f
       -1.1760644 -1.0473776 1.9437768 1.7317408
000020 f4 ce bd bf 8c 34 a9 bf
       -1.4828782 -1.3219161

linear_1.bias f4 [5]
000000 55 8e 98 3f 8d cd 50 be f0 f2 93 be e7 3a 0d bf
       1.1918436 -0.20390911 -0.28896284 -0.55168
000010 45 7c bc be
       -0.3681356

linear_2.weight f4 [1, 5]
000000 1b 14 90 3f ae 1c 3e bf 13 4f bc bf ac 3e 21 c0
       1.1256136 -0.7426251 -1.4711632 -2.5194502
000010 7e e2 ff bf
       -1.9990995
